checkpoints/last_checkpoint.pth (torch, 545499 bytes, 30 tensors)

conv1.weight f4 [6, 1, 5, 5]
00000000: c394 22be a52d df3e 54c2 5b3f a249 3e3f
00000010: 1650 923e 012a 1bbe de2e 893e cfca b33e
00000020: 4b9a b3be a106 25be 6d59 47bf effd c63e
00000030: a748 863e a3bb b2be 868b 7abd 1de6 e6be
00000040: 64b6 10be a2ff 983d 2e6f 77bd a051 b5bd
00000050: ebcd 36bf 4963 913d 4f35 46bc ad9e f03d
00000060: 4a2b 753d c5cb debd 918a 2b3e 3971 c83e
00000070: 7e10 073b 6606 a6bf e1cf 693d 1389 42bc
00000080: 6f14 fa3e aedd 943e a1f8 60bf d5b0 063d
00000090: b16a ec3e f606 1f3e fb2c b7bd 7048 15be
000000a0: d3ab 533d 1311 ae3e 3847 973e 4c13 61be
000000b0: 7b06 a7be fe8b 2d3d 6dab 8d3d c930 843c
000000c0: 8ed3 223d a603 1ebe 3e9a 84bf 4a49 f9be
000000d0: e671 0d3f f1f3 123f dcdc 503d c05f 59bf
000000e0: c934 41be dad0 b03e bbde f03b 61e0 8d3d
000000f0: 9d0a 08bd c62b b93e 9b23 01bf 6be7 1a3e
00000100: df59 113e 5d26 2f3e b42a 973d 61fe 27be
00000110: 21cf 04be 532e f03d 7ea6 44bd 0800 9a3e
00000120: 3795 4b3e 7f09 763e d81a 883e 54a0 f9bc
00000130: 52e7 a2bc 5bc2 05be 0f08 063d 30ab 0ebd
00000140: d8bc 403e 90ed 42bd 6564 f0bd 4563 2b3e
00000150: 9a01 ac3d ab29 163b 56cc 793d 02ca 853c
00000160: 47fe 38be 7c6f 9b3d a8cf ed3d 6fd0 fabd
00000170: 66ae cd3e 6270 a83c d096 14be b1f7 0b3f
00000180: fe92 6cbe 5afb 29bc 7a12 4a3e 5249 c63d
00000190: 8404 18be 683f e53e 25ac 03bb ed0a b0bd
000001a0: 9f0b 603d e934 adbe 6860 233f 44ce eebd
000001b0: 87ac 18be 2820 fdbc d244 c4be 183a 2b3f
000001c0: 7372 64be 25cc 1ebe 23f5 19be c189 09bf
000001d0: 5916 e33e 6692 01be 00d8 5a3e c5d5 833a
000001e0: de92 07bf a4f2 393f 0fc8 92bd 7771 2cbe
000001f0: edb1 9b3c 60c3 cbbc ad08 243f b42c d43e
00000200: 065b 10bf 7d19 48be 735d bb3e de5f 933e
00000210: 5f34 febe d34f 0f3d 4a36 04bf 76dd ae3e
00000220: e887 a33d bab1 efbe 91e2 663d c78f 27be
00000230: a5dd e63e 3fc7 a23e 4309 e1bc 870c 97bd
00000240: 1e30 abbe c530 f6bd 67e3 023e ec91 933e
00000250: 7a42 293e e02e d33c
-0.1587706 0.43589512 0.85843396 0.74331105 0.28576726 -0.15152742 0.2679357 0.35115668
-0.35078654 -0.1611581 -0.7787083 0.3886561 0.26227304 -0.3490878 -0.061168216 -0.45097438
-0.14132077 0.07470633 -0.060408764 -0.08853459 -0.71407956 0.07099015 -0.012097671 0.11749015
0.059855737 -0.1087871 0.16752078 0.39148882 0.0020609195 -1.2970703 0.057083014 -0.011873501
0.48843715 0.29075378 -0.8787938 0.032883484 0.4617515 0.15529999 -0.08944126 -0.14578414
0.051677536 0.33997402 0.29546523 -0.21980017 -0.32622132 0.042369835 0.069174625 0.016136544
0.039752536 -0.1543108 -1.0359571 -0.48688728 0.5525192 0.57403475 0.050991878 -0.8491173
-0.18867792 0.3453434 0.0073507703 0.069275625 -0.033213247 0.3616621 -0.50444955 0.15127341
0.1419444 0.17104478 0.07381192 -0.16405632 -0.12969638 0.11727586 -0.04801034 0.3007815
0.1988114 0.2402706 0.2658298 -0.030471958 -0.019885693 -0.13062422 0.03272253 -0.034831226
0.18822038 -0.04758984 -0.11737899 0.16737087 0.08398743 0.002291302 0.060985886 0.016331676
-0.18065749 0.07589623 0.11611873 -0.12246787 0.40172118 0.0205614 -0.14510655 0.5467482
-0.23102948 -0.010374868 0.19733611 0.096819535 -0.14845473 0.44774938 -0.002009162 -0.08595834
0.054698583 -0.3382943 0.6381898 -0.11660436 -0.14909564 -0.030899122 -0.38333756 0.6688552
-0.22309284 -0.15507562 -0.15034918 -0.5372582 0.44352987 -0.12653503 0.2137146 0.0010058215
-0.52958477 0.72635865 -0.071670644 -0.16840158 0.01900574 -0.024873435 0.6407574 0.41440356
-0.5638889 -0.19540973 0.36594734 0.28784078 -0.4964933 0.034988236 -0.5164534 0.34153336
0.079849064 -0.46815282 0.056368414 -0.1636344 0.45090976 0.31792638 -0.027470237 -0.07375436
-0.33435148 -0.12021021 0.1278206 0.28822267 0.16529265 0.025779188

conv1.bias f4 [6]
00000000: f28a be3b ea61 953e 7e17 2cbc ac7a 1abe
00000010: d25d ffbb 694f e5bb
0.0058149034 0.29176265 -0.010503648 -0.15085858 -0.0077931667 -0.006997992

conv2.weight f4 [16, 6, 5, 5]
00000000: e74a 81bd 8adb bdbd 79ee e7bd 5d7e aa3e
00000010: eaf0 ad3d 7109 d9bd cd22 21be b5c6 e2be
00000020: 9b0f 7d3d feec b43e a75c bfbd fa47 b9bc
00000030: bc4a e2be aa8e 393e 88d3 e43e 8ceb e43d
00000040: 86ac c53d 7a01 22bf 589a af3e 814c 30bd
00000050: 4bfe b2bd 5631 2dbe 0b1b 31bc cf50 023f
00000060: 1568 043d 2521 9bbe 0773 7f3e bd0f 84be
00000070: 35d2 9bbc cd13 85bd 1654 67be 1dc0 a53e
00000080: 4730 3cbf d705 543c b50f ebbb 80bf c93c
00000090: 0419 d03e 2f36 95be 60f3 8e3d 758a 89be
000000a0: d849 213e 5831 fd3e 0ada 0cbe 1417 05bc
000000b0: e519 e0bd b6a0 593e fa8d 763f 229d c8be
000000c0: 8dd6 61be 2506 553e fd77 ee3d 435a a2be
000000d0: 7d35 843d f8a3 773d e04f 923d f428 5fbc
000000e0: 3d79 c13e 19b9 063e 6ea8 00be 2e81 62be
000000f0: 72cd 6b3a a63a 79be 7bf1 30bd 70ab 75be
00000100: 680f 10be 2443 153e 88c8 32be 3f51 82be
00000110: c0e9 6bbd 1b8f a03e 76f4 9a3d 46d1 9b3d
00000120: 40d2 1cbf fe0f 083f 745b 223d ab14 e3bd
00000130: 06b2 02be cdd1 263e e2c4 de3c 54e5 f4bd
00000140: 96bd e33d d3b8 2ebe b021 203e 580d ec3d
00000150: 2d11 703d a974 26be e7e8 f4bc e020 47bd
00000160: 9c79 67bc 3698 a33d 21ea 673e cb3c 0abe
00000170: d297 663d 6cd3 83bd f91d 683e 6c9d 983c
00000180: a245 82be 6d47 98bb 6812 ed3c cb37 3f3e
00000190: 23da 33be 0745 e03d f504 4ebe 6e8b cd3e
000001a0: c8d7 97be 29f5 4e3b 9031 70be 8970 01bf
000001b0: 69be f5bc 684f 913d 9206 b03d 6976 c13e
000001c0: 6fe1 abbe 60e2 d63e 3975 ed3e 97fe d7bd
000001d0: 474d b53e 20e0 7bbe e51c f93d 2bcf 9c3c
000001e0: 9eeb fb3c 7564 28bd eb40 803e a429 cf3e
000001f0: 8eaf 4d3e 37f3 23bd 93c8 80be 47e1 cbbe
00000200: 38bf d03e 80f2 003e 149d 4a3e 85e5 453d
00000210: 9c9d 62be 02fb 283d 20f1 b53c d4a7 873d
00000220: ef91 9b3c 723e 86bd b2df 4bbd b8df fbbd
00000230: 433e 2abe 6c8b c83e 457c 5fbe 13c6 09be
00000240: e54f c83d c04b da3d 8653 8b3e 98ce 02be
00000250: 6cca 63bd b4b7 d1bd 8680 af3b 3802 8f3c
00000260: ea3e 32be b412 86bc f519 683d 1879 28bd
00000270: 087a ca3e 52a8 db3d 5af8 cc3e d785 aabd
00000280: 5172 8cbd 1dae cd3e 2799 1bbe 8a5e abbe
00000290: c2f3 83be 079a 0abf 2532 d93d cfea 8a3e
000002a0: 0d3d ef3d 4325 333e 0b07 15bf 69e6 b33d
000002b0: c460 453e 938f 193e 325d 1b3e d1fe ea3e
000002c0: d1e9 2bbe 1927 5d3e 4ec9 323f ce93 103e
000002d0: cc76 cfbd 5d5b 623d f9fc 043f d536 f13e
000002e0: 5457 bbbe 4648 65be aff9 903e dade a33e
000002f0: 804b 273f 1fa3 4bbc f3fc 1b3f e665 683e
00000300: 9246 3cbb 0fdd f23d 8e8d 0abf f466 8b3f
00000310: 5e30 b23e 8319 a03d 4a3c d8bd 8140 fabd
00000320: f0d3 ed3d ebb5 7e3e 7919 aa3d 9566 d03e
00000330: 9a26 76be 3b39 9d3e 7542 37be e4a6 263c
00000340: a463 c2be a531 4d3e 06a4 123d aa16 9f3d
00000350: 278c ecbe 9151 ea3e e161 783e 462e c3be
00000360: 3f65 89be c19a a8be d8d2 143e 8adb b8bd
00000370: bea2 08bf d954 8c3d e7ee 7c3a 8112 273d
00000380: 362f 0cbe 8262 893e c068 b53e 8297 e53d
00000390: 36bc 963e 559e 3cbe 279d dabe 2cae 6f3e
000003a0: 404e 91bd 98e5 493e 7095 a6be 5bef ddbe
000003b0: 4690 cdbd 59f9 45be 3b15 b3be 6917 823e
000003c0: 7ad1 34bf c91e 01bf 9a9f fbbe 694b 65be
000003d0: 3a1e 0abe 0659 6fbf 6fda 33bf 104b 44bf
000003e0: cd9b f9bd f716 b0be 1f9e 423f f169 903e
000003f0: 5a44 9fbd c247 a1bd 8405 4dbe cbe5 04bf
-0.063131146 -0.092703894 -0.11324782 0.33299533 0.08493216 -0.10597504 -0.15735932 -0.44292226
0.06178246 0.3533706 -0.09343844 -0.022617329 -0.44197643 0.18120828 0.44692636 0.111777395
0.09652047 -0.63283503 0.34297442 -0.04304171 -0.08739909 -0.16913351 -0.01080967 0.50904554
0.032325823 -0.30298725 0.24946223 -0.25793257 -0.019021133 -0.06497917 -0.2259067 0.32373133
-0.73511165 0.012940845 -0.0071735033 0.024627447 0.40644085 -0.291429 0.06980014 -0.26863447
0.15750825 0.4945171 -0.1375505 -0.008123178 -0.10942439 0.21252713 0.9631039 -0.39182383
-0.22054501 0.20803125 0.1164398 -0.3170949 0.064555146 0.060459107 0.07144141 -0.013620604
0.3778781 0.13156547 -0.12564251 -0.2211959 0.00089951523 -0.24338779 -0.043199044 -0.2399118
-0.14068377 0.14576393 -0.17459309 -0.2545261 -0.05759597 0.3135918 0.075661585 0.07608275
-0.61258316 0.531494 0.039637998 -0.110879265 -0.12763223 0.1629097 0.02719349 -0.11957803
0.11120145 -0.17062692 0.15637851 0.115259826 0.05861013 -0.1625544 -0.029896213 -0.048615336
-0.014128115 0.07988016 0.22647907 -0.13499753 0.05629713 -0.0643681 0.22667684 0.018629752
-0.2544375 -0.0046471865 0.02893944 0.18673627 -0.17563681 0.10950666 -0.20119078 0.4014544
-0.29656816 0.0031579232 -0.23456407 -0.5056234 -0.029998021 0.07095224 0.08595003 0.37785652
-0.3357043 0.41969585 0.46378496 -0.10546606 0.3541052 -0.24597216 0.12163714 0.019141754
0.030752 -0.04111143 0.25049528 0.40461457 0.200865 -0.04002687 -0.25153026 -0.3982031
0.40770888 0.12592506 0.19786483 0.04831459 -0.22130436 0.041255005 0.022209704 0.066238075
0.018990485 -0.06554879 -0.04977388 -0.1229853 -0.16625313 0.3916887 -0.21824749 -0.13454466
0.09780864 0.106589794 0.2721216 -0.12774122 -0.055612966 -0.10240117 0.0053558974 0.017457113
-0.17406812 -0.01636634 0.05666538 -0.04113111 0.39546227 0.10725464 0.40033227 -0.08326309
-0.068577416 0.401719 -0.15195142 -0.33470565 -0.2577191 -0.5414128 0.106052674 0.2713227
0.116815664 0.17494683 -0.5821387 0.087841816 0.19275194 0.14996175 0.1517227 0.45897534
-0.16788413 0.21596946 0.69838417 0.14118883 -0.101300806 0.055262912 0.51948506 0.47112146
-0.36590064 -0.22390851 0.28315493 0.3200596 0.6534958 -0.012429028 0.60932845 0.22695121
-0.0028728587 0.1185857 -0.54122245 1.0890794 0.34802526 0.07817366 -0.10558374 -0.122193344
0.116126895 0.24874084 0.0830564 0.40703264 -0.24038163 0.30707726 -0.17896445 0.010171626
-0.37966645 0.20038469 0.035800956 0.07767995 -0.46200678 0.45765355 0.24256088 -0.3812124
-0.26835057 -0.32930568 0.14533556 -0.09026249 -0.53373325 0.06852121 0.00096486363 0.04078913
-0.13689885 0.26832968 0.3543148 0.112105384 0.2944047 -0.18419774 -0.42698023 0.23406285
-0.07095003 0.1971649 -0.32535887 -0.43346676 -0.100372836 -0.193334 -0.34977135 0.25408486
-0.70632136 -0.504376 -0.49145204 -0.22392048 -0.13488093 -0.93495214 -0.7025518 -0.76677036
-0.1218792 -0.3439252 0.76022524 0.28205827 -0.07776709 -0.07875015 -0.20021635 -0.51913136

conv2.bias f4 [16]
00000000: cf78 9ebe 40a1 573e 98b4 f9bd b07a 0cbd
00000010: 41bd 633e 29fe b83e 6b73 453d 3cd4 76be
00000020: ef50 4b3f 4f21 42be b131 113f 9ff9 9a3e
00000030: b919 5dbf 9250 173e 488c 5c3e d352 183c
-0.30951545 0.21057606 -0.12192649 -0.03429669 0.22240163 0.3613141 0.048205774 -0.24104398
0.7942037 -0.18958019 0.5671645 0.3026857 -0.86367375 0.14776829 0.21537888 0.009297091

fc1.weight f4 [120, 256]
00000000: 308d e6bc c17f 78bd db3e 56bd c667 1dbd
00000010: 7aff e5bc 1dce 0f3d df10 d5bc 5278 dabc
00000020: 6467 8fbb 24e6 bb3c caf0 c7b6 7b6c c1bc
00000030: 60d0 d738 d035 1c3d 3571 97bd d4d0 ca3c
00000040: e083 413d 4bdd 923c dcad 20bd 47c1 11bd
00000050: fc7f 82bd 804b 6cbd d176 483d 0a1e 553d
00000060: e232 8abb c6cd 233d 3e35 eaba d301 5fbd
00000070: 7abc 80bd b099 55bd a4b8 153c de84 1dbd
00000080: 0a35 ec3b 763e 403d 7ef1 97bc 5f2b 60bd
00000090: 589d 6fbb c764 bdbc 6502 44bd 1eb7 103b
000000a0: d945 f23c 0cff c4bc 790d 9fbc 5c1b aa3c
000000b0: 2c1d 7dbd c087 153d eb25 903b b6d5 e73b
000000c0: ef26 99ba 60ab a33c 61a5 273d c63a eabc
000000d0: 9731 ef3c 5a2c 093d b304 56bc 7ff7 9abd
000000e0: 7a55 00bb a6f1 0bbc ec32 c43c ff23 103d
000000f0: 56d2 3cbd 2b31 353c 7cc6 e0bc f2ea 083d
00000100: 3716 153c ac25 393d 36f8 3e3c e721 34bd
00000110: 4f36 2c3d 6a2f 63bd ec15 523d 7e79 22bd
00000120: a7b6 36bd acc0 dbbc 50f7 363d 18d9 563b
00000130: 29f4 84bd 0e01 a73c c66d 153d c614 843c
00000140: 90d1 91bd c02d 733c e0dc d93b 00f2 fb3b
00000150: 1650 00bd fe0a 193d 125c 3fbd 188e 713c
00000160: d71f 463d 3281 20bd ecee f7bc 15be 3fbc
00000170: 3bbb 33bd ba08 58bd 4bc5 b0ba 386e 563d
00000180: 38f5 52bd 21be 68bd 7c78 7dbd b5ae 56bd
00000190: fbc9 8b3c 755a 30bd a4d3 73bd 46e3 553c
000001a0: 0219 a4bc 5cda 77bd 9c05 41bd a676 383d
000001b0: 50ae 89b9 216b fb3a f0fb d7bc 83e3 71bd
000001c0: 053b f9bc 4acb 29bc 952f 89bd b8bf 5abd
000001d0: f9aa fc3c 5019 b83b 4bfd a5bb b702 523b
000001e0: 4b3a 3e3d e0ea 2cbc 0170 223c 162e c7bb
000001f0: ae0c 47bc 67fb 81bb 0aa6 5bbc 4247 aa3b
00000200: 00d7 7e3c 8cc9 9dbd 3cf7 59bd 40c2 0ebb
00000210: 1127 e2bc e814 043d 4e23 61bd 08ec 53bd
00000220: cb1a 7bbd 5b42 f5bc 8622 333c 0fe7 5fbd
00000230: fac4 223a 8e33 6dbd 1aa4 c03c 12dd 8abd
00000240: b32c b9bc 214e 3e3c e488 17bd d828 4c3d
00000250: 162d 81bd a273 f83a da26 24bd 3047 05bd
00000260: 0354 85bb 3925 c6bc faeb 10bd 5277 2abd
00000270: e324 a9bc 0fdf 243d a8d1 3d3d aebe aa3c
00000280: 55e1 e8bc a301 eb3c d594 9bbc 00ce 803c
00000290: b89d bb3c 7626 1a3d 0ab3 3e3c eced c7bc
000002a0: cdea 53bd 6161 6abc 55eb f5bc a085 44bc
000002b0: 8e77 a3bc e99b 5cbd 24aa 4d3d 3a16 c1bc
000002c0: 9a4d c13c 7164 5cbd 3833 2a3c 392e 583c
000002d0: 00c0 2ab8 e199 68bc 0eca 2e3d 63da 99bc
000002e0: 06ac 85bd 4463 4cbd 0f6c e6bc 7e2b 483c
000002f0: 60dd ca3b c983 543c 920d 01bd def7 64bc
00000300: 1f69 efbc 2778 43bd 0735 5ebb a6c1 8dbd
00000310: be0a 3a3c 10a9 e2bb 08cb 8dbc 4265 85bd
00000320: 561d 52ba db03 303d 61ba ed3a 2de8 8cbd
00000330: eb5e 4abd 6755 d3bc 937c 343d ef4e 9bbc
00000340: 9c05 75bd 5d68 5ebd 0064 5b3c 7e1f f03c
00000350: df6e 423d 6cfc 413d 7981 b9bc 850c 76bb
00000360: 5068 c83c b7f2 bebc 12aa f9bb 84cc ec3b
00000370: 249b f73c dc6b d0bc 6215 e83c b6f5 02bd
00000380: fc57 833c 4dbe 203d 5ebe 83bd a7ef 8bbd
00000390: 09af 23bd 611b 23bd f0f0 9c3b 72fc 433d
000003a0: 0149 7dbd 9265 3ebd a69f 6abd b06d 4ebd
000003b0: 2ca5 73bd ae06 31bc de58 20bd 928c b13a
000003c0: 4823 d83c 1028 cabb adc5 7fbd 5e94 5abd
000003d0: 4fd3 03bd 4c1b 5cbd c036 34bb a04e 173b
000003e0: ad2c 89bd df8b a7bc e0ca 3d3d ae93 8dbd
000003f0: 8812 80bd f75c 64bd 358c 03bd 541c 293d
-0.028143495 -0.06066871 -0.052306037 -0.038429044 -0.028075922 0.035108674 -0.026009021 -0.026668701
-0.004376339 0.022936888 -5.9586937e-06 -0.023611298 0.00010290812 0.038137257 -0.073946394 0.02475778
0.047244906 0.017927786 -0.039228305 -0.035584714 -0.06372067 -0.05768919 0.048941437 0.0520306
-0.0042174915 0.039991163 -0.0017868651 -0.0544451 -0.06285949 -0.05214852 0.00913826 -0.03845679
0.007208471 0.046934567 -0.01854777 -0.054728862 -0.003656229 -0.023119343 -0.047853846 0.0022081803
0.029574322 -0.024047397 -0.019415604 0.020765 -0.0617954 0.036506414 0.0043990514 0.007075037
-0.0011684577 0.019979179 0.040929202 -0.028592478 0.029198451 0.033489563 -0.013062644 -0.075667374
-0.0019582198 -0.0085415 0.023950063 0.03519058 -0.04609903 0.011059086 -0.027438395 0.033427186
0.009099535 0.045201942 0.011655858 -0.043977644 0.04204398 -0.05546514 0.051290438 -0.039666645
-0.044607785 -0.026825272 0.04466945 0.0032783207 -0.06491882 0.020386245 0.03648164 0.016123187
-0.07120049 0.014842451 0.006648645 0.0076887608 -0.031326376 0.037364 -0.046718664 0.01474335
0.04837021 -0.03918571 -0.030265294 -0.011703034 -0.04387973 -0.052742697 -0.0013486532 0.052351207
-0.05150339 -0.056821946 -0.06188248 -0.052412707 0.017064085 -0.043055017 -0.059528008 0.0130546745
-0.020031456 -0.060510978 -0.04712449 0.045035027 -0.0002626055 0.0019181707 -0.02636525 -0.059054863
-0.03042365 -0.010363409 -0.06698529 -0.053405493 0.030843245 0.005618252 -0.0050655953 0.0032045075
0.04644231 -0.010554045 0.009914399 -0.006078492 -0.012149019 -0.003966737 -0.013406286 0.005196483
0.01555419 -0.07704458 -0.053214297 -0.0021783262 -0.027606519 0.0322465 -0.05496531 -0.05173877
-0.06130485 -0.029938867 0.010933524 -0.054663714 0.00062091614 -0.057910495 0.02351575 -0.06780447
-0.022604322 0.011615307 -0.036995783 0.04984364 -0.063074276 0.001895536 -0.040076114 -0.032538593
-0.004068853 -0.024187671 -0.035381295 -0.0416177 -0.020647472 0.040251788 0.046342522 0.020842876
-0.02842776 0.028687304 -0.018991867 0.015723228 0.022902355 0.037634335 0.011639366 -0.024405442
-0.051737595 -0.0143054435 -0.030019442 -0.011994749 -0.019954469 -0.053859625 0.050211087 -0.023570169
0.023596574 -0.053806726 0.010388188 0.013194614 -4.0709972e-05 -0.014196844 0.042673163 -0.018780893
-0.065269515 -0.049899355 -0.028127698 0.012217401 0.0061909407 0.012970873 -0.031507082 -0.013975112
-0.02922493 -0.047722008 -0.0033906118 -0.06921701 0.0113551 -0.0069171265 -0.017308727 -0.06513454
-0.00080152357 0.042972427 0.001813721 -0.068802215 -0.049406927 -0.025797559 0.044064116 -0.018958537
-0.059819803 -0.054298747 0.013390541 0.029311892 0.047469016 0.04735987 -0.022644745 -0.0037544083
0.024463803 -0.023309095 -0.007619151 0.0072265286 0.030225344 -0.025442056 0.028330509 -0.03197261
0.016033165 0.039243985 -0.06432794 -0.068328194 -0.03996185 -0.039821032 0.004789464 0.047848172
-0.0618372 -0.046483584 -0.05728116 -0.050397575 -0.059483692 -0.010804815 -0.03914725 0.0013545922
0.02638401 -0.0061693266 -0.062444378 -0.05336415 -0.03218394 -0.05373697 -0.0027498454 0.0023087636
-0.06697974 -0.020452438 0.046336055 -0.06912933 -0.062535346 -0.05575272 -0.032116134 0.04128678

fc1.bias f4 [120]
00000000: 41a9 2fbd 0174 093c ad31 1bbb bf44 943e
00000010: bcab c73d 6a04 58be 54bd f6bc 854c 69bd
00000020: dd83 203e 3bfa 5f3c 9aa9 e33e 4b7b c8be
00000030: 4c56 aa3e 4aa3 bbbd 85e7 f8bb 2a31 94bd
00000040: 733c eabc b3ca eabd 245d d2be 2584 21bf
00000050: 0d80 93bd 1af4 ccbe 263f b0bc a070 21be
00000060: d22e e23e 3e5d 0e3e b5db 9c3c fb08 4f3d
00000070: 9068 153f f30f 253c 85f8 8cbe b137 02bf
00000080: b38c bbbd 7ded d5be 4508 b33e 959c 8bbe
00000090: 2498 213f ee34 033f ac7f 77bd 7a0d ad3e
000000a0: 1429 603e dafa b63e cf61 e1be cad6 9a3e
000000b0: 09d5 1d3d 727a 89be eda3 e23e 896a 2d3e
000000c0: 6355 353f 3734 213e d129 b0be ee75 ddba
000000d0: 168d db3e 228b 54bd e906 a93e 7b61 193f
000000e0: c2fa 62be 0ab1 363f 2d38 90bd 1149 71bd
000000f0: 7838 2e3f d530 06bf 81a4 03be 1077 e93e
00000100: aa05 233f e9a8 113d 7162 c7bc e91a 9e3e
00000110: 0196 943e 3011 473c ddbf 063f 8733 1a3e
00000120: 0844 9cbe e759 91be 1e17 603e 8a04 033d
00000130: d494 293e 0ecf eabe 49fb a13e 1199 7fbc
00000140: 830a 3fbf 1b9c f53e 0088 cfbd 9be8 a4bd
00000150: f64e f2be adca aabd c802 0cbd 940b 22bd
00000160: be46 2ebe 6543 3d3e 5c72 4a3d 6369 7abe
00000170: 1ef3 b53e 6c58 66bd 1ad6 01bf 865d 8bbd
00000180: 0206 21bf 55cd d83e 359f ce3e 65c1 2ebf
00000190: fc3d 4bbe aca5 a7bd b74d b7bc 5e2a 18bd
000001a0: 414f 88bc db58 cf3e c81d 313f e3af bdbd
000001b0: 04d8 893e 914d b63e b3e8 53bc a280 2a3e
000001c0: ee7b 36bd eba8 af3e a237 143e 91a5 203c
000001d0: 2c40 cfbe 17c5 03be 9cbd 033e dbc0 59be
-0.042886022 0.008389474 -0.0023680732 0.289587 0.097495526 -0.21095434 -0.030119576 -0.05695774
0.15675302 0.013670499 0.44465333 -0.39156565 0.33268964 -0.09162004 -0.0075959587 -0.0723594
-0.028593278 -0.11464443 -0.41086686 -0.6309226 -0.07202158 -0.40029985 -0.021514487 -0.1576562
0.44176346 0.13902757 0.019147733 0.050545674 0.58362675 0.010074603 -0.27533355 -0.5086623
-0.091576956 -0.41782752 0.34967247 -0.272679 0.63122773 0.5125264 -0.06042449 0.33799344
0.2189067 0.3573826 -0.44019935 0.30241996 0.038533244 -0.2685123 0.4426569 0.16935171
0.70833415 0.15742575 -0.34406903 -0.0016896108 0.42881078 -0.0518905 0.33013085 0.5991437
-0.22165969 0.7136389 -0.07041965 -0.058907572 0.68054914 -0.5241826 -0.12855722 0.4559865
0.6368052 0.035561476 -0.024338933 0.30879906 0.29020694 0.012150094 0.5263651 0.15058719
-0.30520654 -0.28388903 0.21883819 0.03198675 0.1656068 -0.45861095 0.31637028 -0.015600459
-0.74625415 0.47970662 -0.10133362 -0.080521785 -0.47325867 -0.083394386 -0.03418234 -0.039561823
-0.17019174 0.1848274 0.049425468 -0.24454264 0.35537046 -0.05623667 -0.5071732 -0.068049476
-0.6289979 0.42344156 0.4035584 -0.68263847 -0.19847864 -0.08185896 -0.022375925 -0.03714978
-0.016639354 0.4049748 0.6918607 -0.09262063 0.2692262 0.35606053 -0.012933898 0.16650632
-0.044551782 0.34308562 0.14474347 0.009805099 -0.40478647 -0.12868153 0.12865299 -0.21264975

fc2.weight f4 [84, 120]
00000000: b4e3 7c3d cfe8 f53e 9641 453c bd61 30bf
00000010: 462c fdbe 1edf 2dbf 24ad f93c 0023 c2ba
00000020: b62f 763e fd58 c83e 860e ba3d 500d dc3e
00000030: ccc5 17bf 14da 2d3d 348b 093d d086 a7bd
00000040: c5d2 c33c 0d99 0d3f 15b3 bc3e d3fc 05be
00000050: a172 013c 9a6e 61be 30ef 4c3d 3604 923e
00000060: 5dbd 91bc f01e 7a3d d574 1a3c 39de 4bbd
00000070: 0da8 573e 0cf9 643d 4a93 32bf a794 93be
00000080: 9140 153e cb03 79bd c6b5 e03d 506a c4bc
00000090: 362b f73d ed05 f0bb 7bd9 f23c ebe4 e03e
000000a0: b5ca 923e a510 3bbf 98c7 4cbb c99c 0ebe
000000b0: 5226 dc3e 070b c0be 04d2 cfbe 9733 fe3c
000000c0: 1490 e93d 421b ad3e 643e 03be 24ce a1bd
000000d0: e3f9 63be bc06 32bd cbc7 6bbf 1bdd 193f
000000e0: 2e7b 75bd 870a 9c3c d25b 8b3c 0583 5bbd
000000f0: 3e31 873e b343 f33e 716b 4cbe ccb5 823e
00000100: 2276 5b3e 3480 9cbe 518f a83d 515c 90bd
00000110: 8020 a0be d4bb b7bc b7c3 b1bf b2ab e1bd
00000120: 8d31 30be af2b 5b3e d71c 833e 4067 983a
00000130: fdd3 13be 8258 073e 1d60 eebc 9bb2 27bc
00000140: 9e71 36bd 2b09 823e 1105 453d a5fe d3bc
00000150: 855e b23d 2864 043c ee4b 8b3d f9ef 38bd
00000160: 8ebc 4bbf 2ecc 23be 2e92 993d 124e efbe
00000170: abcd 5e3d 7d89 ddbd 1f50 ab3d cc59 d33c
00000180: d6ee 7f3d 708a 2f3e d5ba 813c de8a c9be
00000190: 769c 22bf 4f17 4d3c 9c91 bebc bb18 483d
000001a0: f24e 193d 44ba c13d 753c 9dbb e819 4b3e
000001b0: 209f 023f 4c5b c2bd 0cdb 573d b8ed a4bd
000001c0: 2187 c83e 4941 733c 9249 48bf 51e5 b4bd
000001d0: 0b80 3bbf 2440 0bbe 826e 49bb 92e9 3d3e
000001e0: 59ee a9bc fa7c 0cbe 2fb6 c83c 81a1 213e
000001f0: 5104 343e 9138 b2be 2090 39bb 683c 0dbc
00000200: 3918 ac3d f89b 52bf ab86 0d3d db97 9c3e
00000210: c321 ebbe fd8d e2bd 2647 18bd 6d9d 0dbd
00000220: 9ee7 fc3b 20db 17bf 0804 26bf a3ac 09bf
00000230: ced0 ee3d a015 e03c 195b 093c c977 25be
00000240: 46b8 77bd 12e1 b63e bd40 a0bd 22ff 8e3d
00000250: a926 ccbd 111d ebbc 3a08 9e3e e6c4 663e
00000260: 9648 ddbc 5c3e 78bd 76a3 f1be 1172 433f
00000270: fa68 1f3c 0e81 96be 9d4a 17bd d003 a63e
00000280: 1ce4 953e bf36 42bf e392 55bd 9727 e63e
00000290: ac67 543e 1594 10bf 05dd e6bd 3678 fcbe
000002a0: 476a 0fbe 0376 e6bd 5d7f 5abc de5b 0cbd
000002b0: 5270 0d3f 8c55 cb3d 97c9 23be 8184 7e3d
000002c0: 2e4e 053e 5cb5 f63d bbaa 0fbd 37d3 013d
000002d0: e4ed 1e3f 0e1b 123f 4bb8 9b3e 9610 b7be
000002e0: 88bc fcbe 4ce0 d23d 8f1e a03d 586e 483c
000002f0: dfee d1bd 26d0 b7bb 35a2 bb3e b1e9 003f
00000300: ad8c b73d cc77 abbe 92a5 2cbf ec9f 96bc
00000310: cd71 b33e 5f89 c13e 0eaf 823e aafd 313d
00000320: a55a 92bd 18db 28bf 320a eb3b 74c7 17bd
00000330: 9d4f de3d c49a b33e 7c94 3bbd efdf 7e3d
00000340: 9327 823d 8c32 103d 42fc 953d 0b5b 703e
00000350: 7345 06be 8fe1 0dbe 1364 c0be 22fc bb3c
00000360: 2225 49bf 624e bcbe 715f 4c3b 0bcb ca3c
00000370: 82cc 123e aa97 5abb d217 a63d 5313 37bd
00000380: 25dc 2dbd bd13 c5be 9a6a 35bf f510 033c
00000390: 0292 213e 0da9 243c 816a a83d 4e9a a2bd
000003a0: 25bd 103e 8d07 dfbe 652c b43e af8f db3c
000003b0: 374e 0a3f aa3b f9bd 1d14 3dbc bc61 d7bf
000003c0: 18cf 87bd 000d 0d3d 0848 3a3d 27a8 e0bd
000003d0: 4177 59bd 0b35 933c bf36 93bd 7817 6dbc
000003e0: f664 9cbd 5c48 99bd 01bc b93c 6fe5 993b
000003f0: 49a9 84bd 802e 8dba 7cf3 633d e978 70bd
0.061740592 0.4802918 0.012039563 -0.68899137 -0.4944784 -0.67918575 0.030478068 -0.0014811456
0.24041638 0.39130393 0.090848014 0.42978907 -0.5928619 0.042444304 0.03358002 -0.0818001
0.023904214 0.5531166 0.3685538 -0.13084726 0.007900865 -0.22014847 0.050032794 0.28518838
-0.01779049 0.06106466 0.009427269 -0.049772475 0.210602 0.055901572 -0.69755995 -0.2882435
0.14575411 -0.060794633 0.109721705 -0.023976475 0.12068789 -0.007324925 0.029644718 0.4392465
0.28670278 -0.7307227 -0.0031246897 -0.13926996 0.42997986 -0.37508413 -0.40589917 0.03103046
0.11404434 0.3380986 -0.12816769 -0.07900646 -0.22263293 -0.043463454 -0.92101735 0.60103005
-0.059931926 0.019047989 0.017011557 -0.053591747 0.26404756 0.47512588 -0.1996286 0.25529325
0.21431783 -0.3056656 0.082304604 -0.07048858 -0.31274796 -0.02242843 -1.3887852 -0.110190764
-0.17206402 0.21403383 0.2560794 0.0011627451 -0.14436336 0.13217357 -0.029098565 -0.010235454
-0.044541948 0.2539762 0.048100535 -0.02587826 0.087094344 0.00808052 0.06801592 -0.04515073
-0.79584587 -0.15995857 0.07498585 -0.4673925 0.05439536 -0.108172394 0.08364891 0.025799654
0.06248363 0.17142653 0.015836159 -0.3936376 -0.6351999 0.012517764 -0.023262791 0.04885171
0.037428804 0.094593555 -0.004798467 0.19834101 0.51024055 -0.0949007 0.052699134 -0.08053154
0.39165595 0.014847108 -0.7823726 -0.08832801 -0.73242253 -0.13598686 -0.0030736034 0.18546131
-0.020743536 -0.1371955 0.024500934 0.15784265 0.17579772 -0.34808782 -0.0028314665 -0.008620359
0.084030576 -0.8226924 0.034552258 0.30584607 -0.45924196 -0.11062238 -0.037177227 -0.03457396
0.0077180406 -0.59318733 -0.648499 -0.5377905 0.1166092 0.027354062 0.008383536 -0.16158976
-0.06047847 0.3571859 -0.07824848 0.069822565 -0.09968311 -0.028700383 0.3086565 0.22536048
-0.02701215 -0.060606346 -0.47195023 0.76345927 0.009729618 -0.29395336 -0.03693639 0.32424784
0.29275596 -0.75864786 -0.052142035 0.4495208 0.20742673 -0.56475955 -0.11272625 -0.49310464
-0.14005385 -0.11252978 -0.01333603 -0.0342673 0.5524951 0.09928426 -0.15994869 0.062138084
0.13018104 0.1204631 -0.03507493 0.03169557 0.6208174 0.5707253 0.30414042 -0.35754842
-0.49362588 0.102966875 0.078183286 0.012233339 -0.10250639 -0.00560953 0.36647192 0.50356585
0.08962379 -0.33489835 -0.6744014 -0.018386804 0.3504776 0.37800118 0.2552418 0.043454804
-0.07146195 -0.6595931 0.0071728462 -0.037055448 0.10855029 0.35079014 -0.045795903 0.06222528
0.063552044 0.035204455 0.07323505 0.2347223 -0.1311243 -0.13855575 -0.3757635 0.022947375
-0.78572285 -0.3677855 0.0031184817 0.024755022 0.14335826 -0.003335456 0.08110012 -0.044696163
-0.042446274 -0.38491622 -0.70865786 0.007999648 0.15778354 0.0100500705 0.08223439 -0.079395875
0.14134653 -0.43560448 0.3519012 0.026801912 0.54025596 -0.12169583 -0.01154044 -1.6826701
-0.06631297 0.034436226 0.04547885 -0.109695725 -0.053092245 0.017969629 -0.07188176 -0.014470927
-0.07636444 -0.074845046 0.022672655 0.00469654 -0.06477601 -0.0010771304 0.055652127 -0.05870906

fc2.bias f4 [84]
00000000: aded a9ba eaa3 08bf fdd0 d4bd 90ba 00bf
00000010: abc9 0c3f 862d d9be dec9 fc3d 19ee 213e
00000020: 11c4 03bf 37ab 083f e4b9 30be 8880 06bf
00000030: 4f97 c5bd b0ee 023e e8e1 06be 3264 ea3e
00000040: d527 ea3e 3304 3fbf d64e 0bbf c8a1 5fbe
00000050: 8723 60be b8d4 3dbe c696 d93e 9b5f b13e
00000060: a16f 0a3d bf79 313e 05fa 0c3e e974 bcbd
00000070: 4cde f2be 2dbb 56bd 7ade 9cbd 89ca 123d
00000080: cb82 143f 50e5 0f3f ab0c e3be 8b55 a03e
00000090: 28d0 ecbc 0022 d33d 2d36 debd 2ce6 68be
000000a0: 2c40 283f c2f3 04be 5b1b 2d3f 5d80 d43c
000000b0: 97e2 fbbd 9d0b 4cbd 4446 773f 5539 853d
000000c0: ec2e 9c3d 9336 96be ac84 01bf 0eef a8bd
000000d0: 6007 febc f307 1dbf 382f 883d 0b2a 063e
000000e0: 3888 e9bc 8258 05be e0a5 693e 78cb 813f
000000f0: 1f6f b7be 68c8 66be c6c8 523e d3b0 37be
00000100: 577c 803e 3946 c13b 81d0 70be 33e2 cdbe
00000110: 9369 77be f956 a73d 0c94 113f 997b 7a3e
00000120: 7b3a ce3e 4dd6 1fbf 4d0f d23e 5954 ed3d
00000130: a539 45be 7a08 af3d e640 3c3d 2371 02be
00000140: b382 59be 19ac f6bd 6b98 bebe 7345 b73e
-0.001296451 -0.53375113 -0.10391424 -0.5028467 0.5499522 -0.42417544 0.123431906 0.15813483
-0.5147105 0.53386253 -0.17258412 -0.52539873 -0.096480004 0.12786365 -0.13172114 0.45779568
0.45733514 -0.7461578 -0.5441717 -0.21839058 -0.21888553 -0.18538177 0.42497844 0.34643254
0.033797864 0.17331599 0.1376725 -0.09201986 -0.47435224 -0.0524246 -0.076596215 0.035837684
0.58012074 0.5620928 -0.44345602 0.31315264 -0.02890785 0.10309219 -0.10850177 -0.22744054
0.6572292 -0.12983611 0.67619866 0.025940115 -0.12299078 -0.049815763 0.9659159 0.06505076
0.07626137 -0.29338512 -0.50593066 -0.08248721 -0.031009376 -0.61340255 0.06649631 0.13101976
-0.028507337 -0.13022044 0.22817183 1.0140219 -0.35826966 -0.22537386 0.20584401 -0.17938547
0.25094864 0.005898264 -0.23517038 -0.4021164 -0.24161367 0.081708856 0.56866527 0.24461211
0.40278992 -0.6243637 0.410273 0.11588354 -0.19260271 0.08546539 0.04596033 -0.1273847
-0.21241264 -0.12044544 -0.3722566 0.35795173

fc3.weight f4 [10, 84]
00000000: 0a5f 103e d995 efbd cbfc 853c 7d2b 823e
00000010: a98d a83e 1802 89bf 84bd 70be 7a73 f93d
00000020: 62d0 913d 3392 9fbe 0c57 8fbe 55f2 c6be
00000030: 69e2 0a3f 28bb 9cbf f646 aa3c 3c94 04bf
00000040: 2903 2abe 61a1 243b 16fe ce3e e582 10bf
00000050: e2e5 95be f063 61bf 11c0 2e3e 4034 ce3e
00000060: 7c24 1c3e 2ee5 e1be 3a9b ab3d ffd3 84be
00000070: 697a f93e b8c6 06bf 99ae aa3d 0822 bd3e
00000080: 72ba d3be 7a2d 053e e562 c9bc f11c 0d3e
00000090: 0369 5d3e 9116 00bf c9de 633d f492 94be
000000a0: cf66 383e 7603 e03d 2f78 bebd b89a 1abe
000000b0: 0ee2 a5bc 1dc6 3b3e 3fa8 b33d e174 a1bd
000000c0: 927e 3d3e c78b 093d 56c7 5dbf 120b 2dbf
000000d0: 46fe 063e 3e78 32be f9ee 50bf e0e2 623d
000000e0: 780e 8c3c 440f 4dbf 6b54 e6be 29f1 42be
000000f0: b8f0 e1be 20c6 423f 437f 58be 89ee 453d
00000100: 054e 84be 10af fc3d 5ec8 7dbe 4427 afbe
00000110: facb a23e cb0d aebe 9fa5 313e 732c afbe
00000120: 5a8a 1a3e 66d3 263d b22f 2cbe cff2 b03d
00000130: 458b 5d3e d465 283c a4ca 93be b367 16bf
00000140: fa49 ff3d 661e 08be 04fd dc3e ae9d 583e
00000150: 10ac 5e3e 0c34 5f3e ab1a 94bd bd30 c8bd
00000160: 7ccc 46bf 1858 6dbf 084f 39bf 8ef1 c0bb
00000170: ba8f 273d 4c70 863e 55aa 95be 3cd5 253e
00000180: 350d a23e 5493 003e 4556 9b3c e166 14be
00000190: 155a bbbe 19f5 8bbe fe8b 393f 230e d4be
000001a0: 6c22 083f a095 353f e17a 55bf 539a b53d
000001b0: 7be2 e6be ec41 89bf e512 933e 6c82 9b3e
000001c0: 9367 8d3e 71d8 fdbd ef90 c73d 9070 75be
000001d0: d09d 83be c0eb 19be 7329 eabe b9e7 abbe
000001e0: 3994 88bc 3494 78bf 0cd4 07bf be28 2c3e
000001f0: c91f ffbe b0e5 0fbf 3fe0 653d 95fd 6bbe
00000200: 737c 65b9 2199 a33c f7a2 6d3d 39f9 eebe
00000210: 485a 263e 50c9 153e 5563 b63d c314 873d
00000220: 6750 88bd 3ede f5be 3f5a 94be 24f3 8fbf
00000230: a0e1 93bc 1819 39bf 1dfd 9ebe 400c aabe
00000240: 3f24 c2be 271d 14bf aaf9 f33e b046 0a3e
00000250: 248c 133e bd8d 993e cc1e 0ebf 2b93 6f3e
00000260: b737 3bbf 9fb7 ee3d e718 d8be 83e6 c03a
00000270: 8ef6 063e 886e 223e ccd5 86bf 0bf4 34bf
00000280: 46cf 98bf f507 5e3e 5516 98be bdea 86bf
00000290: 3e68 783e 482f debd 2dc3 92bd 8bc5 8cbf
000002a0: 0b19 eebe 6e19 a8be 4002 a8bb 1550 2dbe
000002b0: 4dfd 6fbf 0498 1c3f 013a 7ebd ddb7 3ebf
000002c0: 0e87 123e 3862 623e 432e 62be d352 4f3e
000002d0: c5a7 6cbf f424 323e 6d27 6dbd 9f1e c5bd
000002e0: 2558 f2be b418 973d 27b2 5fbe 81e8 ccbe
000002f0: 1af7 8cbf a669 17be 2c22 2e3e 10ad c73d
00000300: 1a2c 31bf abd8 adbe 7ccd 22bf c90e c8be
00000310: c309 d2be 04e9 f33d 78df 693e d16b c6be
00000320: 4d02 7cbe 36a3 733e 7001 6fbe 4382 233e
00000330: 328e 36bd 5bdb f0bd 811a 57bf 5e78 133e
00000340: abbe c13c 7071 d73c 3cff a53e fa41 8cbf
00000350: 0586 0abe 122d dcbe 1a4a 353e 20ac d2bd
00000360: 0f79 d8be bbe0 f3be 6976 1ebf b097 ac3d
00000370: 005a 1b3e 736b 00be f7ed b33d 5c74 2c3e
00000380: 919f a43d 70c2 83be 013f 03bf 6885 83bd
00000390: 7803 203e b930 e1be e86e 7dbe e89c 59bf
000003a0: a29a e4be 7bcb a83e 93e6 f23d 375a 653e
000003b0: 275d 99bf 6d80 753e af32 843e a813 5fbe
000003c0: fa35 cdbd 5b2b 383e 16a1 a63e a420 fc3d
000003d0: 5aff 223e 33a3 4b3e 2eb4 2c3e 10e1 d13d
000003e0: 0e23 5dbf b654 1f3d b661 2fbf ac0d 053e
000003f0: fd57 4a3e 75ec 573e f3d7 8a3d 1ee8 aebe
0.14098755 -0.11698503 0.016355893 0.25423804 0.32920578 -1.0703764 -0.23509794 0.121802285
0.07119824 -0.3116623 -0.279961 -0.3885676 0.54251724 -1.2244616 0.02078579 -0.5178869
-0.16602768 0.0025120603 0.40428227 -0.5644973 -0.2927695 -0.8804312 0.17065455 0.4027424
0.15248293 -0.44120163 0.083792165 -0.2594299 0.48726204 -0.5264697 0.08334083 0.36940026
-0.41353184 0.13005629 -0.02458329 0.13780572 0.2162209 -0.50034434 0.055632386 -0.29018366
0.18007968 0.1093816 -0.09300267 -0.15098083 -0.020249393 0.18337293 0.08772325 -0.07883621
0.18505314 0.033580568 -0.8663229 -0.67595017 0.13182935 -0.17428681 -0.81614643 0.055392146
0.017096743 -0.8010142 -0.4498628 -0.19037308 -0.44128966 0.76083565 -0.21142296 0.048323188
-0.25840774 0.12338078 -0.24783465 -0.34209645 0.31796247 -0.33994898 0.17348336 -0.342136
0.1509184 0.04072895 -0.1681507 0.08640062 0.21635158 0.010278184 -0.2886554 -0.5875198
0.12465282 -0.13292846 0.43161786 0.211539 0.21745324 0.21797198 -0.07231649 -0.09774921
-0.7765577 -0.92712545 -0.7238622 -0.0058881706 0.040908553 0.2625755 -0.29231516 0.16194624
0.316507 0.12556201 0.018962035 -0.1449237 -0.36592165 -0.27335432 0.72479236 -0.41417035
0.53177524 0.70931435 -0.83390623 0.08867326 -0.45094666 -1.0723243 0.28725353 0.30372941
0.27618083 -0.123947985 0.09744441 -0.2396872 -0.2570634 -0.15031338 -0.45734748 -0.33575228
-0.01667224 -0.9710114 -0.5305793 0.16812417 -0.49828938 -0.5620985 0.05612206 -0.23045953
-0.00021885503 0.019970478 0.058016744 -0.46674517 0.16245377 0.14627576 0.08905665 0.06595757
-0.066559605 -0.4802112 -0.28975102 -1.1246076 -0.018051922 -0.72303915 -0.31052485 -0.3321247
-0.3791828 -0.5785698 0.47651416 0.13503528 0.14408928 0.2999095 -0.5551574 0.23395984
-0.7313189 0.11656117 -0.422065 0.0014717135 0.1317999 0.15862477 -1.0533996 -0.7068488
-1.1938255 0.21682723 -0.29704538 -1.0540386 0.24258515 -0.10848862 -0.07166133 -1.0997785
-0.4650348 -0.328319 -0.0051272213 -0.1692508 -0.9374588 0.6116946 -0.062067036 -0.74499303
0.14309332 0.2210778 -0.2208796 0.20246439 -0.92443496 0.17396909 -0.057898927 -0.09624981
-0.47332874 0.073777586 -0.21845303 -0.40021136 -1.101291 -0.14786395 0.17005223 0.09749806
-0.6920792 -0.33954367 -0.63594794 -0.3907378 -0.41023073 0.119096786 0.22839153 -0.38754132
-0.24610253 0.23792729 -0.23340392 0.1596766 -0.0445692 -0.11760589 -0.84024817 0.14401385
0.023650488 0.026299208 0.3242129 -1.0957634 -0.13527687 -0.43003136 0.17704049 -0.102867365
-0.4227986 -0.47632393 -0.6189943 0.084273696 0.15171051 -0.12540989 0.087856226 0.16841263
0.080382474 -0.25734282 -0.5126801 -0.064219296 0.15626323 -0.43982485 -0.24749339 -0.85005045
-0.44649225 0.32967743 0.11860385 0.22397695 -1.1981553 0.23974772 0.2581992 -0.21784842
-0.10020061 0.17985289 0.32544774 0.12310913 0.15917721 0.19886474 0.16865608 0.102480054
-0.86381614 0.038899146 -0.6850847 0.12993497 0.19760127 0.21086295 0.0677947 -0.34161466

fc3.bias f4 [10]
00000000: e016 bb3d 5bfd 5abf 17e0 8d3e 327a 453f
00000010: d47a 58bf 07fd 18bf b492 be3d 2f28 893d
00000020: 6b0f 9f3e 48fc 8e3e
0.091352224 -0.8554284 0.2771003 0.7713958 -0.8456242 -0.5976109 0.09305325 0.066971175
0.3106645 0.2792685

exp_avg f4 [6, 1, 5, 5]
00000000: 62e3 533b c17b 01bc 742e 60bc 1b1c bbbb
00000010: 507b 81bc 023d 7bbc 6429 59bc a812 9339
00000020: 1e49 46bc b571 10bc 7e1c 40bc 8d90 aabc
00000030: 7b6a c8ba b56b 46bc fbc8 a0bb 84b0 40bc
00000040: 9197 99bc fe33 ecbc 8df4 b6bc 5dc2 5cbc
00000050: 4b39 0abd 625a 00bd ff69 0cbd e285 01bd
00000060: 226d f2bc 704b adb9 ebcf a6bc 075b c1bc
00000070: 0dc5 1ebd 86c9 fbbc 2a56 57bc 750a 05bd
00000080: f1a4 83bc 5e89 9fbc a2cb aebc 2499 f8bc
00000090: 8b94 c5bc 924f 68bc d75e 54bc 36c4 b3bc
000000a0: 25dc 9fbc 272e a5bc 3a05 1cbc 9397 94bc
000000b0: 1dd4 b1bb 20e8 ffbb 9d44 3abc 1949 8a3c
000000c0: f2fd bc3b 143e 393c 36fd c0bb 283b bdbc
000000d0: 2ac1 9bbc de1d e6bc b3fc d2bc 3d49 25bc
000000e0: acda 84bc e232 7bbc 85b6 cebc 7059 81bc
000000f0: e716 89bc be86 d9bc bbbe 95bc 8bbf cfbc
00000100: b923 c4bc eb40 05bd a813 39bd 5836 00bd
00000110: aa21 15bd d6fb 0fbd 7f4c 16bd af3a 63bd
00000120: afbc 42bd 9490 83bd 415d 43bd c4d3 c93c
00000130: 734d 2d39 8a1a a4bc a563 89bb 3a56 00bd
00000140: 0627 b83c fe47 ab3b b3bf 39bc 92ad 0fbc
00000150: 99de 5ebc a8a1 913c f63d 7a3c 9bcc 2b3a
00000160: 85d4 2ebc abe1 06bc 186f 553c 0df6 ae3b
00000170: 4540 c4ba f3e7 28bc 9618 90bc 8a64 853c
00000180: f89e ca3a 08cb bc39 68fa 52bb 8fe4 15bc
00000190: b17c 24bd 74cf debc ea6f 04bd af8a 01bd
000001a0: 9e48 40bd edbe fabc 0daf 2abd df92 19bd
000001b0: 852c 03bd 52c8 02bd f058 01bd b727 1abd
000001c0: 2eb8 e8bc 9245 95bc e380 ddbc b793 11bd
000001d0: 6168 1ebd 9575 cdbc fde6 a0bc 8c62 f4bc
000001e0: 1ff1 2ebd ca79 2dbd 864e cabc 6deb eebc
000001f0: 0ea8 18bd a3fa d2bc c95c 36bd edf7 34bd
00000200: 595d 61bd fe09 92bd ba33 06bd c16b 28bd
00000210: d8e2 04bd 35f8 12bd 4fdf 5ebd 8815 cebc
00000220: 2280 03bd 9ce4 05bd 69a0 18bd c11a 05bd
00000230: a76c 96bc bbd2 b7bc eab4 99bc 9a21 1fbd
00000240: 207e 25bd 1a0e a2bc a4ac 0dbc 1ed3 81ba
00000250: 024e e3bc 7e4f dfbc
0.0032331576 -0.00790304 -0.01368295 -0.0057101375 -0.01580587 -0.01533437 -0.013254497 0.00028051925
-0.012102393 -0.008816172 -0.011725543 -0.02082088 -0.0015290523 -0.01211064 -0.0049067712 -0.011760835
-0.01874903 -0.028833386 -0.022333408 -0.013474074 -0.033746045 -0.031336196 -0.034280773 -0.03162182
-0.029593054 -0.00033053337 -0.020362815 -0.023602976 -0.03876214 -0.030735742 -0.013143102 -0.032480676
-0.016069861 -0.019474681 -0.021337334 -0.03034646 -0.024118682 -0.014179127 -0.012962065 -0.021944147
-0.019514153 -0.020163609 -0.0095227305 -0.018138682 -0.005426897 -0.007809654 -0.011368898 0.016880559
0.0057675773 0.0113063045 -0.00588956 -0.023099497 -0.019013006 -0.028090414 -0.025755262 -0.010088262
-0.016217552 -0.015331956 -0.025233516 -0.015789717 -0.016734554 -0.026553508 -0.018279424 -0.02535989
-0.023942815 -0.032532614 -0.04518476 -0.031301826 -0.036409058 -0.03515228 -0.036694046 -0.055475887
-0.047543224 -0.064240605 -0.047696356 0.02463711 0.00016527418 -0.020032186 -0.0041927868 -0.031332232
0.022479545 0.005227088 -0.011337209 -0.00876941 -0.013602876 0.017777279 0.015273562 0.0006553621
-0.010670786 -0.008232514 0.013026975 0.00533939 -0.0014972767 -0.010309207 -0.017589848 0.016283292
0.0015458753 0.00036009424 -0.003219271 -0.009148731 -0.040157977 -0.02719853 -0.032333292 -0.0316264
-0.046944253 -0.030608619 -0.041670848 -0.037493583 -0.03202488 -0.03192932 -0.031578958 -0.03763553
-0.028408136 -0.01822165 -0.027038997 -0.035541262 -0.038673762 -0.025080482 -0.019641394 -0.029832147
-0.04271042 -0.042352475 -0.024695646 -0.029164994 -0.037269644 -0.025754279 -0.04452208 -0.044181753
-0.055020664 -0.07130812 -0.032764174 -0.041118387 -0.032442898 -0.03588124 -0.054412182 -0.025156751
-0.03210462 -0.032688722 -0.037262354 -0.032496218 -0.018362356 -0.022439351 -0.018763024 -0.038850404
-0.040403485 -0.019782115 -0.008647118 -0.0009904837 -0.027747158 -0.027259585

exp_avg_sq f4 [6, 1, 5, 5]
00000000: 1ba0 9c3c edea a23c b187 aa3c aa1e a53c
00000010: 6aea b03c f81f 9b3c e248 9a3c 8611 a83c
00000020: afe6 903c 6fe2 a73c 7f0c 9a3c 7be5 9e3c
00000030: 9624 ae3c d73c 913c 9587 ac3c 55d6 9f3c
00000040: c24c a43c 7986 b23c 2f4a 983c 37e0 b13c
00000050: 1fb5 a53c 3e69 ab3c d47e b53c 0214 ba3c
00000060: 0b81 cd3c b09a 6a3d 8d73 843d c8d5 8f3d
00000070: 0268 853d 33f4 553d f91b 843d 869d 8b3d
00000080: 934a 913d 0b09 8e3d 00ce 713d b422 8d3d
00000090: d8c2 953d 7a48 903d e7aa 8c3d f925 8c3d
000000a0: 5428 893d eb29 923d a608 8f3d 3f3a 853d
000000b0: 7c62 813d b795 853d e3a9 873d 385c 863d
000000c0: 12a8 843d 04d8 803d 5bf6 4a3c 778d 5d3c
000000d0: dc2d 6f3c aa5a 523c 2b62 4e3c 5479 4a3c
000000e0: e8a2 653c 6dee 603c ad36 533c 471e 483c
000000f0: e6bd 553c c1dd 6d3c ea0b 563c d43e 4b3c
00000100: 4091 463c 95ee 643c 9ef1 6d3c 12c2 5d3c
00000110: ab61 593c 3977 543c fc3b 5b3c 27e9 683c
00000120: ad83 5b3c a226 583c 1d63 4c3c 4b2c b53c
00000130: 0f5b 9a3c b388 aa3c 69b1 b53c 1798 bf3c
00000140: 6368 ae3c 448c 923c 81cd 983c 1041 aa3c
00000150: 7587 b73c 9e9e b13c 569a 943c d3c8 963c
00000160: 388d 9b3c 3d5a b03c 686e b63c c58e 943c
00000170: cb39 a23c 8cc9 aa3c fd3a ab3c d86a bf3c
00000180: 0acd 943c 5f4f a13c f733 b03c c352 b83c
00000190: 6706 f13c 1c52 ff3c f383 023d 72dc 043d
000001a0: 896e 083d eb2d e43c e92c f33c 04f2 fa3c
000001b0: 773c 023d 038e 033d 3afb e23c b374 e83c
000001c0: 0208 f43c 9573 ff3c 16cf 023d dc45 e83c
000001d0: 21f5 f33c cffd f63c ba7f 033d b1a7 053d
000001e0: 0a2c db3c dbc8 eb3c 9058 ec3c 6935 ef3c
000001f0: 7d0c fb3c 5fef 543c 0956 4a3c 4c9d 4d3c
00000200: 5944 453c 0baa 493c 79e4 4d3c 9e23 3f3c
00000210: ceb6 3c3c 8289 533c 54b7 4d3c a66c 503c
00000220: 827a 4c3c f094 533c ae29 6e3c c435 6a3c
00000230: 693b 563c b7e1 5d3c ffb4 5a3c dbeb 6c3c
00000240: 647a 6c3c ccf5 5e3c 0c00 5f3c e7db 723c
00000250: 4a4a 813c 6229 803c
0.019119313 0.019887412 0.020816656 0.020156223 0.021596152 0.018936142 0.018833581 0.020516168
0.017688124 0.020493714 0.018804787 0.019396534 0.02125768 0.017729206 0.021060744 0.019511381
0.020056132 0.021792637 0.018590061 0.02171336 0.020227967 0.020924207 0.022155203 0.022714619
0.025085947 0.057276428 0.06467352 0.070231974 0.065139785 0.05223484 0.06450648 0.068171546
0.07094302 0.069353186 0.059034348 0.06891385 0.07312554 0.07045074 0.068685345 0.0684318
0.06697145 0.071369015 0.069840714 0.0650525 0.063176125 0.065226965 0.066242 0.06560558
0.06477369 0.06291202 0.012387837 0.013522497 0.014598336 0.012838999 0.012596647 0.012358028
0.014015891 0.01372872 0.012891454 0.01221425 0.013045764 0.014518202 0.013064364 0.012405116
0.012119591 0.013972898 0.014522938 0.0135350395 0.013267915 0.012967878 0.013381001 0.014215744
0.013398093 0.0131928045 0.012474802 0.022115847 0.018842248 0.020817136 0.022179322 0.023387952
0.02129001 0.01788915 0.01865268 0.020782977 0.022403458 0.02168208 0.01814 0.018406307
0.018988237 0.021527404 0.022269443 0.018134484 0.019802948 0.020848058 0.020902151 0.023366377
0.018164176 0.019691167 0.021509154 0.022500401 0.029421998 0.031167082 0.031864118 0.032436796
0.03330854 0.027853927 0.0296845 0.03063298 0.031795945 0.032117855 0.027707685 0.028375959
0.029788975 0.031183043 0.031935774 0.028353624 0.029779973 0.030150322 0.03210423 0.032630626
0.026754398 0.028782299 0.028850824 0.029200273 0.030645603 0.012996524 0.012349614 0.0125497095
0.012040221 0.012308608 0.012566679 0.011666207 0.011518193 0.012911202 0.012555916 0.012721216
0.01248038 0.012913927 0.014536304 0.014295045 0.013075688 0.013542584 0.013348817 0.014460529
0.014433477 0.013608407 0.013610851 0.014822937 0.015782494 0.015644733

exp_avg f4 [6]
00000000: 7935 e9bc 8a20 babc 877d 61bd 4e30 b6bc
00000010: d089 c5bd 4d24 79bd
-0.02846788 -0.022720594 -0.055051353 -0.02223983 -0.09645426 -0.060825635

exp_avg_sq f4 [6]
00000000: 203b b53d f1a2 573e 5a7a f93c 052e 883d
00000010: ed59 883d 44ca 683d
0.08849168 0.21058251 0.03045385 0.066494025 0.06657777 0.05683352

exp_avg f4 [16, 6, 5, 5]
00000000: 233c 7d3b 5e2d 32bb 730b 3a3b 81e3 0cbb
00000010: bea2 c6bb b8c6 b53b 79b0 02bc 2e85 e3b8
00000020: af6a 64bb 8769 7dbb c082 c43a be18 45bc
00000030: e5b7 03bb fea7 81bb b1eb f8bb 114e 37ba
00000040: 624c 2cbc f1de 40bb 55c0 15bb cb5d 99bb
00000050: 6183 98bb ed82 37bc c9e3 2abb 8fad 9abb
00000060: 574c b7bb 663c b7ba ce73 5bbb ef91 ddb9
00000070: 69d3 e9ba 4972 3bbc 201a 243b 42ef 26bb
00000080: ca2b d4ba 3376 25b8 a306 17bc ed38 eb39
00000090: 9e49 04bb 6caf 0fbb f485 be39 1f55 b3bb
000000a0: c2ae 03bb 674e 19bb 79e3 13bb 39b2 47ba
000000b0: 64c0 90bb 506e 18bb 3a3c f8b8 1dfd 2c3a
000000c0: 58aa 55ba 7c36 4bb7 400c bbbb aad2 0bbc
000000d0: 09af 44bc f908 83bc 1e36 25bb 7960 cdbb
000000e0: dda9 6abc 1f44 f4bb 7a7e cfbb f1a2 8fb9
000000f0: 8415 0dbc 9f8f 7abc 0d00 1bbb 9300 81bb
00000100: 072c 20bb 2765 c6bb cc31 1dbc 089f e039
00000110: b760 2cbb fe94 3bba da12 a2bb 9241 0ebc
00000120: a4bc c238 e077 a2ba 5195 83ba e49e 8a3b
00000130: 2b9c 0d3b 95a5 e9ba bc2a afba 0d76 25bb
00000140: c925 573b 023b 533a 8600 9aba abc4 95ba
00000150: 21e7 9eba c4d9 753b c264 4b3a fac2 1aba
00000160: b47c 4aba 4913 08ba c5f5 6a3b 7510 303a
00000170: 5ce8 0f3a 9c74 aeba 0ffb 32ba ba83 913b
00000180: 0f42 873a 9d42 f338 db03 953a a73c dc39
00000190: ce54 b93b 6838 d7bb 4052 86b9 4907 fd3a
000001a0: 0d20 86bb 11f6 133b 16fb 0cbc e65d afba
000001b0: 87fe 133b 7bf2 cdbb 4bde 94ba f22f 4ebc
000001c0: 35eb bfba 87fb 863b 673c f2bb 9029 aaba
000001d0: 921c 29bc bcdf 0fbb af9d c43a b955 b2bb
000001e0: e53e 553a ead5 30bc b454 ccba a94e c23a
000001f0: 3fc0 9cbb 0329 7f3b e438 963b f20c a63a
00000200: b45f 1e3b ce6a ebbb d55d c93b 3962 843b
00000210: 590f 17bb acf9 0e3a d7e1 aabb 7ed6 cf3b
00000220: c41d ec3a eb55 45bb 2d42 efb9 a203 0dbb
00000230: 12ef 9e3b 41ad ca3a 9248 72ba d7c4 efb7
00000240: 1a8f 40bb 9687 793b a14e cbba 5c45 27ba
00000250: 6936 1eba f2c9 833a bc27 163b 8a0f 1c3b
00000260: 5d4e ccba 0866 623b 03aa e53a 4e6d f83a
00000270: 2c21 6c3b 85e7 a5b8 c1bc 833b 0ac7 a13a
00000280: f608 b13b 1147 993b c225 263b e6eb 933b
00000290: 3615 de3a 6a0c b93b 8156 7a3b ca33 c13b
000002a0: 056a 193c e150 663b f076 bc3b 876b 403b
000002b0: f256 843b 4008 353c 1bf4 a73a d484 b6bb
000002c0: 5ef3 5cbb bb2d f43b f1a8 383c ea41 e23a
000002d0: 690d 423a 3293 85bb f1bb 533b d358 223c
000002e0: a7a5 233a bb22 2c3a 47c0 4dbb 8497 f93a
000002f0: e348 413c 5665 703b a31f 0d3a cbb2 76bb
00000300: 9c57 8fba 2da1 553c 341e b63b 1280 c3b9
00000310: 95b2 94bb 1225 37bb f18a 673c 6760 0d3c
00000320: e08e c53b 7143 1b3a 30f1 3ebb 4c97 213b
00000330: a3fe 84ba 4804 8f3b 5adf d439 58fa 3aba
00000340: 330f 613a eb83 04ba 4930 443b 3929 363a
00000350: 169e 9dba 3234 73ba 93b8 84ba 7dcc 2cba
00000360: e2ec 733a f38e 223b 75e7 6a39 d0d1 d4ba
00000370: 7db7 79ba b2f2 efba 999a 043b 9e51 a6ba
00000380: c15b e2b9 8a9c d73a 892b 503b f14b 253b
00000390: 5ecc ae3a 1412 753b 91aa 233b e848 273b
000003a0: 276e 623b 5a48 3e3b bfc0 8e3b 0112 203b
000003b0: 467c f93a 624c d13a 3c0c e03a ae81 913b
000003c0: 5041 ff3a 051d a43a 1996 2f3b 6ed7 8b39
000003d0: b6c4 443b bdc9 323a d1fe e339 65ff ae3a
000003e0: e289 94b9 a803 c33a e1ce 63ba 61eb 4e3b
000003f0: b95f 25bb fe3a 933b 7855 f3ba 237e 84ba
0.003864058 -0.0027187685 0.0028388172 -0.0021497908 -0.006061881 0.0055473708 -0.007976645 -0.0001084901
-0.0034853627 -0.0038667636 0.001499258 -0.012029825 -0.0020098623 -0.003956794 -0.007596456 -0.0006992529
-0.010516258 -0.0029429758 -0.0022850235 -0.0046803704 -0.0046543335 -0.011200649 -0.0026075712 -0.004720397
-0.005593817 -0.0013979792 -0.0033485773 -0.00042261134 -0.0017839494 -0.011440822 0.0025039986 -0.0025472199
-0.0016187367 -3.9449147e-05 -0.009217891 0.00044865106 -0.002018548 -0.0021924628 0.00036339427 -0.0054727937
-0.0020093177 -0.0023392679 -0.0022566004 -0.0007617805 -0.004417466 -0.002325911 -0.000118367796 0.0006598996
-0.00081506884 -1.21124285e-05 -0.0057082474 -0.008534113 -0.012004622 -0.01599549 -0.0025209258 -0.006267604
-0.014322725 -0.0074544097 -0.006332216 -0.00027396486 -0.008611087 -0.015293031 -0.0023651153 -0.003936836
-0.0024440305 -0.006054539 -0.009594392 0.00042843097 -0.0026302764 -0.00071556855 -0.004946095 -0.008682625
9.285778e-05 -0.0012395345 -0.0010039007 0.004230367 0.0021607976 -0.0017825837 -0.0013364176 -0.0025247366
0.0032828918 0.0008057804 -0.0011749424 -0.001142641 -0.0012123325 0.0037513832 0.00077588495 -0.00059036876
-0.00077242707 -0.0005190862 0.0035852056 0.00067163195 0.00054896413 -0.0013309899 -0.0006827572 0.004440752
0.001031937 0.000115995506 0.0011368947 0.0004200686 0.0056558615 -0.0065680034 -0.00025619753 0.0019304539
-0.004093176 0.0022577087 -0.008604785 -0.0013379424 0.002258213 -0.0062850094 -0.0011357752 -0.012584673
-0.0014642241 0.00411934 -0.0073924544 -0.0012982357 -0.010321753 -0.0021953424 0.0015000607 -0.005442348
0.0008134677 -0.010793189 -0.0015589208 0.0014824468 -0.0047836597 0.0038934357 0.0045844186 0.0012668653
0.002416593 -0.007184363 0.006145219 0.0040400294 -0.002304992 0.0005454074 -0.0052149105 0.006342708
0.0018014242 -0.0030111026 -0.00045634937 -0.0021517058 0.0048502767 0.0015463011 -0.0009242381 -2.858268e-05
-0.002938217 0.00380752 -0.0015511104 -0.000638088 -0.00060353294 0.0010054691 0.0022911867 0.0023812973
-0.0015587319 0.0034545679 0.0017521981 0.0018953474 0.0036030514 -7.910937e-05 0.004020304 0.0012342643
0.0054026796 0.004677661 0.0025352095 0.0045142053 0.0016943577 0.005647232 0.0038198533 0.0058960663
0.009363656 0.0035143422 0.005751483 0.0029360966 0.004038685 0.01104933 0.0012813838 -0.0055700336
-0.0033714394 0.0074517406 0.0112707475 0.0017262076 0.0007402511 -0.004076385 0.0032308067 0.009908873
0.00062426407 0.00065664545 -0.0031395124 0.0019042348 0.011797163 0.0036681495 0.00053834374 -0.003764319
-0.0010936144 0.013038916 0.0055577997 -0.00037288718 -0.00453789 -0.002794568 0.014132247 0.008628941
0.006028995 0.00059228303 -0.0029135458 0.002465683 -0.0010146688 0.004364524 0.000406022 -0.0007132641
0.00085853337 -0.00050550577 0.0029936007 0.00069488917 -0.0012025263 -0.0009277492 -0.0010125808 -0.00065917504
0.00093050126 0.0024804443 0.00022402203 -0.0016236845 -0.0009525938 -0.0018306582 0.002023375 -0.0012689119
-0.0004317444 0.001644985 0.003176423 0.0025222267 0.0013336053 0.0037394809 0.0024973492 0.0025525633
0.003455052 0.0029034824 0.004356473 0.0024424794 0.0019034229 0.0015968198 0.001709349 0.004440508
0.0019474421 0.0012520856 0.0026792346 0.00026672654 0.0030024475 0.00068202225 0.00043486667 0.001335126
-0.0002833149 0.0014878409 -0.000869019 0.0031573402 -0.0025234057 0.0044931164 -0.00185649 -0.0010108392
